模型训练/Models/Tflites/gender_int_half.tflite (tflite, 656472 bytes, 6 tensors)

sequential/conv2d/Conv2D i1 [16, 3, 3, 3]
000000 8b ef ef 81 ea 38 8f e6 06 ec c5 04 d3 05 ce dd
       -117 -17 -17 -127 -22 56 -113 -26 6 -20 -59 4 -45 5 -50 -35
000010 09 d6 61 11 29 40 39 fa 6a 53 2c e7 24 22 83 26
       9 -42 97 17 41 64 57 -6 106 83 44 -25 36 34 -125 38
000020 dc b2 eb aa f3 10 44 e9 07 29 ca d4 08 f7 71 7f
       -36 -78 -21 -86 -13 16 68 -23 7 41 -54 -44 8 -9 113 127
000030 00 2c 48 d3 01 3d 7f 3a 26 1c 49 32 05 da cc 40
       0 44 72 -45 1 61 127 58 38 28 73 50 5 -38 -52 64
000040 1c 0a c6 ee da c1 0a f6 ee df 22 92 8d 94 ac 3a
       28 10 -58 -18 -38 -63 10 -10 -18 -33 34 -110 -115 -108 -84 58
000050 32 7f 69 31 ec 15 c3 96 c1 84 39 1e fc e3 31 27
       50 127 105 49 -20 21 -61 -106 -63 -124 57 30 -4 -29 49 39
000060 c8 c9 9f 03 4c 5a 26 51 3a 87 93 ca 0a 09 23 2d
       -56 -55 -97 3 76 90 38 81 58 -121 -109 -54 10 9 35 45
000070 53 5f 53 ed dd 31 fe 50 02 d0 fd c6 d5 f4 fe 28
       83 95 83 -19 -35 49 -2 80 2 -48 -3 -58 -43 -12 -2 40
000080 4e a4 dd b2 83 81 d4 30 26 17 7f 57 4c 74 fe 40
       78 -92 -35 -78 -125 -127 -44 48 38 23 127 87 76 116 -2 64
000090 83 a2 16 d0 f6 de e8 bc 2c dd b6 be fc 84 bd 20
       -125 -94 22 -48 -10 -34 -24 -68 44 -35 -74 -66 -4 -124 -67 32
0000a0 8a 8d f5 e0 a6 50 16 43 e8 16 d7 d7 9f bf 2c 30
       -118 -115 -11 -32 -90 80 22 67 -24 22 -41 -41 -97 -65 44 48
0000b0 45 fe 35 ec 8c 83 96 b3 e7 27 61 7f 47 7d cf e0
       69 -2 53 -20 -116 -125 -106 -77 -25 39 97 127 71 125 -49 -32
0000c0 5c d5 cf 63 08 12 7f c4 c7 7e a7 ef b2 c2 92 32
       92 -43 -49 99 8 18 127 -60 -57 126 -89 -17 -78 -62 -110 50
0000d0 93 eb 63 e2 e0 1a d0 4b 3a 03 46 5c 3f 59 57 3a
       -109 -21 99 -30 -32 26 -48 75 58 3 70 92 63 89 87 58
0000e0 6b fb bd df b6 fb 07 c9 20 51 fa b0 81 ea 98 83
       107 -5 -67 -33 -74 -5 7 -55 32 81 -6 -80 -127 -22 -104 -125
0000f0 9f cf f8 0f 32 dc f2 3f f1 0f 38 eb 81 31 01 9a
       -97 -49 -8 15 50 -36 -14 63 -15 15 56 -21 -127 49 1 -102

sequential/conv2d_1/Conv2D i1 [32, 3, 3, 16]
000000 ec d3 21 fb 02 17 fa f4 f2 ef 11 1f 07 06 ba 0c
       -20 -45 33 -5 2 23 -6 -12 -14 -17 17 31 7 6 -70 12
000010 9e b9 f5 d7 0e 18 f8 14 16 f0 05 14 12 0b c8 14
       -98 -71 -11 -41 14 24 -8 20 22 -16 5 20 18 11 -56 20
000020 81 e9 ff e6 1d 01 f0 1f fa f3 0a 2f 05 0a f9 0a
       -127 -23 -1 -26 29 1 -16 31 -6 -13 10 47 5 10 -7 10
000030 28 f7 f5 08 ea ef f9 fd fa f0 0a f4 e7 21 f3 f1
       40 -9 -11 8 -22 -17 -7 -3 -6 -16 10 -12 -25 33 -13 -15
000040 fd d4 10 00 07 39 13 f0 12 01 0e fa f9 04 b4 11
       -3 -44 16 0 7 57 19 -16 18 1 14 -6 -7 4 -76 17
000050 db ea 0b d6 d7 30 16 ff 16 0c 13 f4 f0 15 b6 16
       -37 -22 11 -42 -41 48 22 -1 22 12 19 -12 -16 21 -74 22
000060 24 0e e6 18 c0 b9 a3 e1 03 d3 dc d0 97 ee 10 dc
       36 14 -26 24 -64 -71 -93 -31 3 -45 -36 -48 -105 -18 16 -36
000070 16 fd e7 2e d0 08 d4 c8 0a f1 00 de 8e fb fa e5
       22 -3 -25 46 -48 8 -44 -56 10 -15 0 -34 -114 -5 -6 -27
000080 fb dd ed f0 c2 50 04 c8 20 fa 2d e5 ae 30 da 19
       -5 -35 -19 -16 -62 80 4 -56 32 -6 45 -27 -82 48 -38 25
000090 f3 12 df 07 e9 05 19 ef 0a 19 12 f2 f1 12 ff 09
       -13 18 -33 7 -23 5 25 -17 10 25 18 -14 -15 18 -1 9
0000a0 e1 f0 dc de dd 01 fa 0c 0f e8 01 fc 14 0f f9 1c
       -31 -16 -36 -34 -35 1 -6 12 15 -24 1 -4 20 15 -7 28
0000b0 fb db e4 c0 ef 19 08 fe 12 ed 26 14 15 09 0a 1b
       -5 -37 -28 -64 -17 25 8 -2 18 -19 38 20 21 9 10 27
0000c0 c5 07 93 15 9f ff 09 fd ef 0c e5 fd e5 f7 fc e4
       -59 7 -109 21 -97 -1 9 -3 -17 12 -27 -3 -27 -9 -4 -28
0000d0 b8 c5 95 f1 99 12 00 09 fe bf 02 2f fa f7 f7 14
       -72 -59 -107 -15 -103 18 0 9 -2 -65 2 47 -6 -9 -9 20
0000e0 c2 97 ad cc a9 fe 11 0d 11 c5 10 0e 06 07 01 0c
       -62 -105 -83 -52 -87 -2 17 13 17 -59 16 14 6 7 1 12
0000f0 df f9 e9 12 e6 17 09 f8 f6 02 e3 ec e6 0d f7 cf
       -33 -7 -23 18 -26 23 9 -8 -10 2 -29 -20 -26 13 -9 -49

sequential/conv2d_2/Conv2D i1 [64, 3, 3, 32]
000000 0a 14 ac c4 08 ec ec 23 f9 20 d2 df b9 0e 0b 19
       10 20 -84 -60 8 -20 -20 35 -7 32 -46 -33 -71 14 11 25
000010 1b fc f0 0f 0e ac 09 fa fa fc e7 d2 fb bf 0d fd
       27 -4 -16 15 14 -84 9 -6 -6 -4 -25 -46 -5 -65 13 -3
000020 1e 1d ef f7 f4 e8 d9 fb c1 ec ad d9 ab fa 00 03
       30 29 -17 -9 -12 -24 -39 -5 -63 -20 -83 -39 -85 -6 0 3
000030 0e 15 da e9 fb 9b 2e fe 05 ae d4 ef 04 b5 14 df
       14 21 -38 -23 -5 -101 46 -2 5 -82 -44 -17 4 -75 20 -33
000040 0f 18 d4 e2 f9 e3 f2 38 a0 ff f3 f2 b1 16 c1 02
       15 24 -44 -30 -7 -29 -14 56 -96 -1 -13 -14 -79 22 -63 2
000050 2b 12 0e 11 0f d5 1b d1 29 d9 16 fe 08 d0 f4 f2
       43 18 14 17 15 -43 27 -47 41 -39 22 -2 8 -48 -12 -14
000060 0e de 9f e5 13 0c e3 1d ee 1a e4 0c e6 02 ea 16
       14 -34 -97 -27 19 12 -29 29 -18 26 -28 12 -26 2 -22 22
000070 e7 06 fb 09 fe dd f4 f9 fb ff 0b dc fa c0 04 f6
       -25 6 -5 9 -2 -35 -12 -7 -5 -1 11 -36 -6 -64 4 -10
000080 fa d5 b8 e1 f9 fa ec 02 d7 06 f7 ef e2 dc ef fa
       -6 -43 -72 -31 -7 -6 -20 2 -41 6 -9 -17 -30 -36 -17 -6
000090 de fe 05 cf e9 bc fb 01 d7 d9 fc ee e0 a7 d2 de
       -34 -2 5 -49 -23 -68 -5 1 -41 -39 -4 -18 -32 -89 -46 -34
0000a0 09 e8 d3 bc fe ee ff 01 c1 04 19 ef c1 0f f4 09
       9 -24 -45 -68 -2 -18 -1 1 -63 4 25 -17 -63 15 -12 9
0000b0 0c 0d 08 0e 0d e6 fa d7 e1 f3 16 02 0c eb db df
       12 13 8 14 13 -26 -6 -41 -31 -13 22 2 12 -21 -37 -33
0000c0 01 a6 8f f9 18 2f f3 ef 12 06 2a e8 22 0c 04 1a
       1 -90 -113 -7 24 47 -13 -17 18 6 42 -24 34 12 4 26
0000d0 06 f8 1b 17 f7 23 f0 03 ee 21 0c d2 ed f1 0b dc
       6 -8 27 23 -9 35 -16 3 -18 33 12 -46 -19 -15 11 -36
0000e0 f4 95 ba c3 f1 16 ff f3 da 0c 18 c2 0e f2 06 03
       -12 -107 -70 -61 -15 22 -1 -13 -38 12 24 -62 14 -14 6 3
0000f0 f4 ec 00 0f 05 ee fa 1d d2 05 ff d1 f3 d7 f9 c8
       -12 -20 0 15 5 -18 -6 29 -46 5 -1 -47 -13 -41 -7 -56

sequential/dense/MatMul i1 [256, 2304] scale=0.008339677 zero_point=0
000000 03 ed ef ee 1d 0f 07 f6 fc 07 ff 0f 06 08 e8 f7
       0.025019031 -0.15845387 -0.1417745 -0.15011418 0.24185063 0.12509516 0.05837774 -0.08339677 -0.033358708 0.05837774 -0.008339677 0.12509516 0.050038062 0.066717416 -0.20015225 -0.07505709
000010 fe 08 ff 0e ef 08 f3 e7 f4 04 ff f0 0c 15 1b 17
       -0.016679354 0.066717416 -0.008339677 0.11675548 -0.1417745 0.066717416 -0.1084158 -0.20849192 -0.100076124 0.033358708 -0.008339677 -0.13343483 0.100076124 0.17513321 0.22517128 0.19181257
000020 f3 04 02 f5 0e 13 f5 ef 12 f1 0e 1c fa 06 fc 11
       -0.1084158 0.033358708 0.016679354 -0.09173645 0.11675548 0.15845387 -0.09173645 -0.1417745 0.15011418 -0.12509516 0.11675548 0.23351096 -0.050038062 0.050038062 -0.033358708 0.1417745
000030 16 d7 fc fd f9 f4 f1 f9 0e fc 25 09 0a 00 15 10
       0.1834729 -0.34192675 -0.033358708 -0.025019031 -0.05837774 -0.100076124 -0.12509516 -0.05837774 0.11675548 -0.033358708 0.30856806 0.07505709 0.08339677 0.0 0.17513321 0.13343483
000040 fc 17 f8 fb 12 00 0a e9 f9 f7 0b fe fd ef eb 02
       -0.033358708 0.19181257 -0.066717416 -0.041698385 0.15011418 0.0 0.08339677 -0.19181257 -0.05837774 -0.07505709 0.09173645 -0.016679354 -0.025019031 -0.1417745 -0.17513321 0.016679354
000050 12 09 fa f2 dc ee e5 f8 f1 0d e1 08 ea 10 e9 01
       0.15011418 0.07505709 -0.050038062 -0.11675548 -0.30022836 -0.15011418 -0.22517128 -0.066717416 -0.12509516 0.1084158 -0.25853 0.066717416 -0.1834729 0.13343483 -0.19181257 0.008339677
000060 ec f6 03 00 1f ec e9 f9 e2 ef fa 07 fa 05 03 fc
       -0.16679354 -0.08339677 0.025019031 0.0 0.25853 -0.16679354 -0.19181257 -0.05837774 -0.25019032 -0.1417745 -0.050038062 0.05837774 -0.050038062 0.041698385 0.025019031 -0.033358708
000070 f1 04 e5 f7 ea 00 fd f6 ea 08 00 18 04 01 0f 22
       -0.12509516 0.033358708 -0.22517128 -0.07505709 -0.1834729 0.0 -0.025019031 -0.08339677 -0.1834729 0.066717416 0.0 0.20015225 0.033358708 0.008339677 0.12509516 0.283549
000080 ec eb 0b fc 0b fe ec f7 0f e8 ef eb fc 0b f5 fb
       -0.16679354 -0.17513321 0.09173645 -0.033358708 0.09173645 -0.016679354 -0.16679354 -0.07505709 0.12509516 -0.20015225 -0.1417745 -0.17513321 -0.033358708 0.09173645 -0.09173645 -0.041698385
000090 02 14 f4 12 00 fb 0d de fa f1 f4 d4 f0 f1 ee f5
       0.016679354 0.16679354 -0.100076124 0.15011418 0.0 -0.041698385 0.1084158 -0.283549 -0.050038062 -0.12509516 -0.100076124 -0.3669458 -0.13343483 -0.12509516 -0.15011418 -0.09173645
0000a0 f6 00 f3 01 ef 03 f9 fe 0a e8 f8 e0 fc 00 ed 0b
       -0.08339677 0.0 -0.1084158 0.008339677 -0.1417745 0.025019031 -0.05837774 -0.016679354 0.08339677 -0.20015225 -0.066717416 -0.26686966 -0.033358708 0.0 -0.15845387 0.09173645
0000b0 e0 04 e4 fb e3 00 f2 ef 06 03 11 ed ed de fd fb
       -0.26686966 0.033358708 -0.23351096 -0.041698385 -0.24185063 0.0 -0.11675548 -0.1417745 0.050038062 0.025019031 0.1417745 -0.15845387 -0.15845387 -0.283549 -0.025019031 -0.041698385
0000c0 05 0d ee f3 0b 05 08 de 0e ee f4 07 03 f2 25 f8
       0.041698385 0.1084158 -0.15011418 -0.1084158 0.09173645 0.041698385 0.066717416 -0.283549 0.11675548 -0.15011418 -0.100076124 0.05837774 0.025019031 -0.11675548 0.30856806 -0.066717416
0000d0 ec 01 00 0c f6 fa f3 e4 f8 e7 f4 00 fd 0f 0c 00
       -0.16679354 0.008339677 0.0 0.100076124 -0.08339677 -0.050038062 -0.1084158 -0.23351096 -0.066717416 -0.20849192 -0.100076124 0.0 -0.025019031 0.12509516 0.100076124 0.0
0000e0 ff fa 05 f3 10 f0 0b ee f2 0c f8 fc fd fd f6 0a
       -0.008339677 -0.050038062 0.041698385 -0.1084158 0.13343483 -0.13343483 0.09173645 -0.15011418 -0.11675548 0.100076124 -0.066717416 -0.033358708 -0.025019031 -0.025019031 -0.08339677 0.08339677
0000f0 de e0 da f4 0d f7 d9 04 f2 03 fa 08 f2 01 02 df
       -0.283549 -0.26686966 -0.31690773 -0.100076124 0.1084158 -0.07505709 -0.3252474 0.033358708 -0.11675548 0.025019031 -0.050038062 0.066717416 -0.11675548 0.008339677 0.016679354 -0.27520934

sequential/dense_1/MatMul i1 [128, 256] scale=0.0068526524 zero_point=0
000000 08 d5 11 f8 f3 c8 da f6 12 05 03 d3 1d 17 10 0b
       0.05482122 -0.29466406 0.11649509 -0.05482122 -0.08908448 -0.38374853 -0.2604008 -0.06852652 0.123347744 0.03426326 0.020557957 -0.30836937 0.19872692 0.15761101 0.10964244 0.07537918
000010 00 04 05 f5 17 24 fc f5 eb 00 fe f4 fe eb 26 10
       0.0 0.02741061 0.03426326 -0.07537918 0.15761101 0.24669549 -0.02741061 -0.07537918 -0.1439057 0.0 -0.013705305 -0.08223183 -0.013705305 -0.1439057 0.2604008 0.10964244
000020 ff 12 19 01 f7 36 1f 18 f6 ca ec 0d 0c 02 0a f4
       -0.0068526524 0.123347744 0.17131631 0.0068526524 -0.061673872 0.37004322 0.21243222 0.16446365 -0.06852652 -0.37004322 -0.13705304 0.08908448 0.08223183 0.013705305 0.06852652 -0.08223183
000030 f7 0a 31 f4 fa f8 ff 16 07 f6 da e5 0c 10 23 f0
       -0.061673872 0.06852652 0.33577996 -0.08223183 -0.041115914 -0.05482122 -0.0068526524 0.15075836 0.047968566 -0.06852652 -0.2604008 -0.18502161 0.08223183 0.10964244 0.23984283 -0.10964244
000040 f3 15 1a f8 00 f7 04 f3 fb 0d 0b fb f1 02 fd 09
       -0.08908448 0.1439057 0.17816897 -0.05482122 0.0 -0.061673872 0.02741061 -0.08908448 -0.03426326 0.08908448 0.07537918 -0.03426326 -0.10278979 0.013705305 -0.020557957 0.061673872
000050 ef df fa 14 0c da 04 08 fa 0f ea 1c 0d 06 13 ff
       -0.11649509 -0.22613753 -0.041115914 0.13705304 0.08223183 -0.2604008 0.02741061 0.05482122 -0.041115914 0.10278979 -0.15075836 0.19187427 0.08908448 0.041115914 0.1302004 -0.0068526524
000060 13 fb 0f e9 00 fb fb 0d df fe 00 e7 09 06 f8 11
       0.1302004 -0.03426326 0.10278979 -0.15761101 0.0 -0.03426326 -0.03426326 0.08908448 -0.22613753 -0.013705305 0.0 -0.17131631 0.061673872 0.041115914 -0.05482122 0.11649509
000070 e5 10 fa f1 08 17 07 f3 f5 c7 09 f3 11 ff d2 1a
       -0.18502161 0.10964244 -0.041115914 -0.10278979 0.05482122 0.15761101 0.047968566 -0.08908448 -0.07537918 -0.3906012 0.061673872 -0.08908448 0.11649509 -0.0068526524 -0.31522202 0.17816897
000080 ec f1 cc f7 e3 f8 05 4b 07 28 10 fe e3 16 ec f1
       -0.13705304 -0.10278979 -0.35633793 -0.061673872 -0.19872692 -0.05482122 0.03426326 0.5139489 0.047968566 0.2741061 0.10964244 -0.013705305 -0.19872692 0.15075836 -0.13705304 -0.10278979
000090 0b 02 f1 07 10 0a f9 ef 01 f3 11 fd 00 29 27 27
       0.07537918 0.013705305 -0.10278979 0.047968566 0.10964244 0.06852652 -0.047968566 -0.11649509 0.0068526524 -0.08908448 0.11649509 -0.020557957 0.0 0.28095874 0.26725346 0.26725346
0000a0 07 e2 10 07 01 fc d2 f8 0b 3f f1 0e f8 e6 0c 12
       0.047968566 -0.20557958 0.10964244 0.047968566 0.0068526524 -0.02741061 -0.31522202 -0.05482122 0.07537918 0.4317171 -0.10278979 0.09593713 -0.05482122 -0.17816897 0.08223183 0.123347744
0000b0 05 eb f3 c6 f7 0f 0a 10 03 33 11 f7 ef f1 f6 2a
       0.03426326 -0.1439057 -0.08908448 -0.39745384 -0.061673872 0.10278979 0.06852652 0.10964244 0.020557957 0.34948528 0.11649509 -0.061673872 -0.11649509 -0.10278979 -0.06852652 0.2878114
0000c0 14 f1 ec e4 fe fc df f7 0a f1 e7 dd 04 f0 09 03
       0.13705304 -0.10278979 -0.13705304 -0.19187427 -0.013705305 -0.02741061 -0.22613753 -0.061673872 0.06852652 -0.10278979 -0.17131631 -0.23984283 0.02741061 -0.10964244 0.061673872 0.020557957
0000d0 fc e6 f5 f9 09 f9 d7 ea f9 41 04 ed 0d 09 13 df
       -0.02741061 -0.17816897 -0.07537918 -0.047968566 0.061673872 -0.047968566 -0.28095874 -0.15075836 -0.047968566 0.4454224 0.02741061 -0.1302004 0.08908448 0.061673872 0.1302004 -0.22613753
0000e0 15 d6 ff 0f 14 08 fc fd 03 14 e1 f9 18 0a 11 08
       0.1439057 -0.2878114 -0.0068526524 0.10278979 0.13705304 0.05482122 -0.02741061 -0.020557957 0.020557957 0.13705304 -0.21243222 -0.047968566 0.16446365 0.06852652 0.11649509 0.05482122
0000f0 03 f4 37 dd 05 0e ec f9 01 f3 00 fb ed bd 01 fd
       0.020557957 -0.08223183 0.37689587 -0.23984283 0.03426326 0.09593713 -0.13705304 -0.047968566 0.0068526524 -0.08908448 0.0 -0.03426326 -0.1302004 -0.45912772 0.0068526524 -0.020557957

sequential/dense_2/MatMul i1 [2, 128] scale=0.0021051525 zero_point=0
000000 32 c5 1f c2 c8 ca fe d3 1d 6e 5c ee 4d e3 1a 4b
       0.10525762 -0.124203995 0.065259725 -0.13051945 -0.11788854 -0.11367823 -0.004210305 -0.09473186 0.06104942 0.23156677 0.19367403 -0.037892744 0.16209674 -0.06104942 0.054733966 0.15788643
000010 23 f8 28 ee ff f1 28 0a 4c 17 22 0d e8 25 17 13
       0.073680334 -0.01684122 0.0842061 -0.037892744 -0.0021051525 -0.031577285 0.0842061 0.021051524 0.15999159 0.048418507 0.07157519 0.027366983 -0.05052366 0.07789064 0.048418507 0.039997898
000020 43 c8 2f fd 54 d2 dc 03 07 af d9 19 1f d9 ac e8
       0.14104521 -0.11788854 0.09894217 -0.0063154576 0.17683281 -0.096837014 -0.07578549 0.0063154576 0.0147360675 -0.17051736 -0.08210094 0.05262881 0.065259725 -0.08210094 -0.17683281 -0.05052366
000030 22 32 bf b7 d1 d6 21 ff 0e 4e 81 d0 f4 72 18 02
       0.07157519 0.10525762 -0.1368349 -0.15367614 -0.09894217 -0.088416405 0.06947003 -0.0021051525 0.029472135 0.16420189 -0.26735437 -0.10104732 -0.02526183 0.23998739 0.05052366 0.004210305
000040 d7 e2 ff a7 9b ee 88 05 44 0d c1 07 f9 ec b6 34
       -0.08631125 -0.06315457 -0.0021051525 -0.18735857 -0.21262039 -0.037892744 -0.25261828 0.010525762 0.14315037 0.027366983 -0.13262461 0.0147360675 -0.0147360675 -0.04210305 -0.15578128 0.10946793
000050 c2 2c 0f 1f d6 28 ee b9 ff f9 24 d5 c9 97 ad 38
       -0.13051945 0.092626706 0.031577285 0.065259725 -0.088416405 0.0842061 -0.037892744 -0.14946583 -0.0021051525 -0.0147360675 0.07578549 -0.09052156 -0.115783386 -0.22104101 -0.17472765 0.11788854
000060 bc 32 b9 e6 2d 08 fc 2c 29 36 3c 4b e7 ee 01 df
       -0.14315037 0.10525762 -0.14946583 -0.054733966 0.09473186 0.01684122 -0.00842061 0.092626706 0.08631125 0.11367823 0.12630914 0.15788643 -0.05262881 -0.037892744 0.0021051525 -0.06947003
000070 b7 2c 55 c9 16 d6 40 d3 c3 1a 49 06 a9 35 f6 ac
       -0.15367614 0.092626706 0.17893796 -0.115783386 0.046313353 -0.088416405 0.13472976 -0.09473186 -0.1284143 0.054733966 0.15367614 0.012630915 -0.18314826 0.11157308 -0.021051524 -0.17683281
000080 3f aa 1b 06 eb e6 26 e5 58 56 23 30 42 c7 ee 53
       0.13262461 -0.18104312 0.056839116 0.012630915 -0.044208203 -0.054733966 0.079995796 -0.056839116 0.18525341 0.18104312 0.073680334 0.10104732 0.13894007 -0.119993694 -0.037892744 0.17472765
000090 3e 26 3f f1 02 db 08 fa 58 62 e1 e1 ad 2b f9 34
       0.13051945 0.079995796 0.13262461 -0.031577285 0.004210305 -0.07789064 0.01684122 -0.012630915 0.18525341 0.20630494 -0.065259725 -0.065259725 -0.17472765 0.09052156 -0.0147360675 0.10946793
0000a0 04 fc d6 3c 41 b2 29 07 ce d4 ea 29 fb 1e c1 10
       0.00842061 -0.00842061 -0.088416405 0.12630914 0.1368349 -0.16420189 0.08631125 0.0147360675 -0.10525762 -0.092626706 -0.046313353 0.08631125 -0.010525762 0.06315457 -0.13262461 0.03368244
0000b0 f2 6c 2b b4 33 c9 d7 4c db 43 d3 db e6 24 19 eb
       -0.029472135 0.22735646 0.09052156 -0.15999159 0.10736278 -0.115783386 -0.08631125 0.15999159 -0.07789064 0.14104521 -0.09473186 -0.07789064 -0.054733966 0.07578549 0.05262881 -0.044208203
0000c0 e6 e8 4e c0 bc f5 f9 47 15 ce c3 e6 3d b5 c4 39
       -0.054733966 -0.05052366 0.16420189 -0.13472976 -0.14315037 -0.023156676 -0.0147360675 0.14946583 0.044208203 -0.10525762 -0.1284143 -0.054733966 0.1284143 -0.15788643 -0.12630914 0.119993694
0000d0 c6 0f 58 f9 1a cf f7 cb e7 bd 52 e0 aa ed 07 e6
       -0.12209884 0.031577285 0.18525341 -0.0147360675 0.054733966 -0.10315247 -0.018946372 -0.11157308 -0.05262881 -0.14104521 0.1726225 -0.06736488 -0.18104312 -0.039997898 0.0147360675 -0.054733966
0000e0 9a 43 a8 ab 1e 26 18 11 f5 fc 07 0c 0e 14 cd 2e
       -0.21472555 0.14104521 -0.18525341 -0.17893796 0.06315457 0.079995796 0.05052366 0.035787594 -0.023156676 -0.00842061 0.0147360675 0.02526183 0.029472135 0.04210305 -0.10736278 0.096837014
0000f0 e5 47 a9 25 03 07 36 bc f1 e9 03 d0 de 24 3e 9c
       -0.056839116 0.14946583 -0.18314826 0.07789064 0.0063154576 0.0147360675 0.11367823 -0.14315037 -0.031577285 -0.048418507 0.0063154576 -0.10104732 -0.07157519 0.07578549 0.13051945 -0.21051525
